# Ultralytics YOLO 🚀, AGPL-3.0 license
# YOLOv8 object detection model with P3-P5 outputs. For Usage examples see https://docs.ultralytics.com/tasks/detect

# Parameters
nc: 20  # number of classes
scales: # model compound scaling constants, i.e. 'model=yolov8n.yaml' will call yolov8.yaml with scale 'n'
  # [depth, width, max_channels]
  n: [ 0.33, 0.25, 1024 ]  # YOLOv8n summary: 225 layers,  3157200 parameters,  3157184 gradients,   8.9 GFLOPs
  s: [ 0.33, 0.50, 1024 ]  # YOLOv8s summary: 225 layers, 11166560 parameters, 11166544 gradients,  28.8 GFLOPs
  m: [ 0.67, 0.75, 768 ]   # YOLOv8m summary: 295 layers, 25902640 parameters, 25902624 gradients,  79.3 GFLOPs
  l: [ 1.00, 1.00, 512 ]   # YOLOv8l summary: 365 layers, 43691520 parameters, 43691504 gradients, 165.7 GFLOPs
  x: [ 1.00, 1.25, 512 ]   # YOLOv8x summary: 365 layers, 68229648 parameters, 68229632 gradients, 258.5 GFLOPs

# YOLOv8.0n backbone
backbone:
  # [from, repeats, module, args]
  - [ -1, 1, Conv, [ 64, 3, 2 ] ]  # 0-P1/2
  - [ -1, 1, Conv, [ 128, 3, 2 ] ]  # 1-P2/4
  - [ -1, 3, C2f, [ 128, True ] ]   # 2
  - [ -1, 1, Conv, [ 256, 3, 2 ] ]  # 3-P3/8
  - [ -1, 6, C2f, [ 256, True ] ]   # 4
  - [ -1, 1, Conv, [ 512, 3, 2 ] ]  # 5-P4/16
  - [ -1, 6, C2f, [ 512, True ] ]   # 6
  - [ -1, 1, Conv, [ 1024, 3, 2 ] ]  # 7-P5/32
  - [ -1, 3, C2f, [ 1024, True ] ]  # 8
  - [ -1, 1, SPPF, [ 1024, 5 ] ]  # 9

# YOLOv8.0n head
head:    # fusion_in=960, embed_dim_p=128, outch=192,trans_channels=[128, 64, 128, 256], block="RepVGGBlock"
   - [ [ 2, 4, 6, 9 ], 1, SimFusion_4in, [ ] ] # 10
   - [ -1, 1, Conv, [ 768, 1, 1]]    # 11
   - [ -1, 1, AIFI, [ 384, 8 ]]   # AIFI 12

   - [ [ 6, 12 ], 1, InjectionMultiSum_Auto_pool, [ 256, [ 256, 128 ], 0 ] ] # 13
   - [ -1, 3, C2f, [ 512, False] ] # 14  p4

   - [ [ 4, 12 ], 1, InjectionMultiSum_Auto_pool, [ 128, [ 256, 128 ], 1 ] ] # 15
   - [ -1, 3, C2f, [ 256, False] ] # 16  p3

#   - [ [ 16, 14, 9 ], 1, PyramidPoolAgg, [ 704, 2 ] ] # 17
#   - [ -1, 1, TopBasicLayer, [ 704, [ 256, 512 ] ] ] # 18
   - [ [ 16, 14, 9 ], 1, PyramidPoolAgg, [ 768, 2 ] ] # 17
   - [ -1, 1, AIFI, [ 768, 8 ]]

   - [ [ 14, 18 ], 1, InjectionMultiSum_Auto_pool, [ 256, [ 256, 512 ], 0 ] ] # 19
   - [ -1,3, C2f, [ 512, False] ] # 20  n4

   - [ [ 9, 18 ], 1, InjectionMultiSum_Auto_pool, [ 512, [ 256, 512 ], 1 ] ] # 21
   - [ -1, 3, C2f, [ 1024, False] ] # 22  n5

   - [ [ 16, 20, 22 ], 1, Detect, [ nc ] ] # 23


